data.pth (torch, 4991 bytes, 6 tensors)

l1.weight f4 [8, 54]
-0.28879303 -0.3645363 0.29866016 0.29171392 0.3723142 0.74354666 0.47339064 0.41826963
0.55304927 0.449765 0.20875023 -0.087763 0.0105757285 -0.14278027 -0.06768302 -0.28455317
0.21454564 0.8162545 -0.27679646 0.24306326 -0.17942983 0.25867268 0.2266075 -0.21298286
0.16500054 0.3065675 -0.16842085 -0.39344782 -0.3148259 -0.24656692 0.52228194 -0.23756948
0.01564543 0.3584672 -0.23630905 -0.24447218 -0.14379361 0.3494349 0.39547083 0.4200413
0.6496374 -0.36382306 -0.029459428 -0.19388665 0.26397604 -0.22375739 -0.68514377 -0.25189033
0.035364807 -0.44066754 -0.27877966 -0.34900916 0.24973083 0.27388442 0.28784212 -0.18633728
0.035594475 0.061343018 0.043493934 0.7887327 0.06453856 0.06030971 0.13002096 0.30075872
0.071448624 0.27159712 0.033160396 0.3908291 -0.18460494 0.2553433 0.105638504 0.7523749
-0.119079866 -0.01875646 0.26062134 -0.009097858 0.017773414 0.2601014 0.40808573 0.2368622
-0.069674976 -0.3210567 0.106435984 -0.49249956 0.5127994 0.2952565 0.19813663 0.11378939
-0.1361137 0.1393471 -0.12697649 0.028691623 0.23845342 0.06910892 0.43260184 -0.23697187
0.16077001 -0.27513856 0.44003546 -0.25851518 0.6496874 0.15798552 0.27775195 -0.21276416
0.10519812 -0.169171 0.2019069 0.124076776 -0.092126474 0.48302388 -0.39575925 0.4587532
0.2325931 -0.6924101 -0.16073143 -0.3413664 -0.39944476 -0.45148128 0.56748146 0.3650857
-0.039211698 0.18986277 0.53405523 0.42735025 0.43415162 -0.5935104 0.31473055 0.56246716
-0.019005548 0.49776253 0.55574125 0.6403109 0.045599286 0.38410938 0.4003529 0.5337088
0.12201245 0.60289896 -0.32767314 0.33642587 -0.2725353 -0.43064567 0.5972475 0.19073047
0.13790804 -0.37422526 -0.33734062 -0.24047312 -0.3105736 0.2258347 0.2122694 0.5181816
-0.027373593 0.42635897 -0.47470987 -0.15077539 0.24821097 0.31796744 0.2438959 0.34983698
-0.11459129 0.0681751 0.49149042 0.49165565 0.0855044 0.14746918 0.23913443 -0.6176494
0.3619191 0.3916814 0.49207553 0.16653031 0.085269704 -0.36310902 0.5617124 -0.09147236
0.354632 -0.36622718 0.11802491 -0.6177131 0.4036089 0.10272327 0.41646495 0.070744805
0.07741796 -0.3708125 0.073505655 -0.108900614 0.70904326 0.35052323 0.4800062 0.15706402
-0.5991306 -0.14604725 0.095350444 0.21473841 0.39558795 -0.30368605 0.45896512 0.39613813
0.49632746 0.48858508 -0.50918525 0.45054656 -0.15215123 0.27255175 0.1422299 0.4520388
0.7970841 0.33622447 0.43676066 0.68016243 -0.21520442 0.34977308 0.5594751 0.660652
0.48951712 -0.23109525 0.652437 -0.35323817 0.18906109 -0.3972902 0.41420838 0.61464536
0.4606149 0.43710825 -0.19438602 -0.27172604 0.39371303 -0.03684528 -0.098203786 -0.18383047
-0.2029373 -0.3973135 0.30466 -0.3972974 0.4158366 -0.39729455 -0.3973262 -0.6277489
0.16850546 -0.20884918 0.2508408 -0.38901773 0.3798049 -0.5319257 -0.2967358 0.012700935
0.3181769 0.46139607 -0.15769662 -0.35005307 0.509436 0.67747676 0.4712771 0.6021333
00000000: aedc 93be 80a4 babe fce9 983e 875b 953e
00000010: f89f be3e 1359 3e3f 4260 f23e 7027 d63e
00000020: a394 0d3f 9947 e63e 9fc2 553e 16bd b3bd
00000030: d245 2d3c fe34 12be 659d 8abd f4b0 91be
00000040: dab1 5b3e 0ef6 503f 44b8 8dbe 93e5 783e
00000050: 74bc 37be bf70 843e cc0b 683e 2e18 5abe
00000060: e7f5 283e 6af6 9c3e 8476 2cbe fe71 c9be
00000070: dc30 a1be 0a7c 7cbe 45b4 053f 6a45 73be
00000080: d82a 803c 0389 b73e 00fb 71be ea56 7abe
00000090: a23e 13be 22e9 b23e 277b ca3e a70f d73e
000000a0: a34e 263f 0447 babe e654 f1bc 398a 46be
000000b0: de27 873e a820 65be 9565 2fbf c5f7 80be
000000c0: b0da 103d 2d9f e1be 35bc 8ebe 54b1 b2be
000000d0: 70b9 7f3e 943a 8c3e 0b60 933e 33cf 3ebe
000000e0: 83cb 113d d142 7b3d b226 323d 63ea 493f
000000f0: cb2c 843d 5107 773d 3724 053e 0cfd 993e
00000100: a853 923d c70e 8b3e 32d3 073d c01a c83e
00000110: 1409 3dbe 5bbc 823e 0059 d83d a49b 403f
00000120: 25e0 f3bd 26a7 99bc 2970 853e 2f0f 15bc
00000130: 8d99 913c 032c 853e 9df0 d03e 018c 723e
00000140: c1b1 8ebd 8b61 a4be 1cfb d93d e728 fcbe
00000150: d246 033f dc2b 973e 54e4 4a3e 690a e93d
00000160: 6461 0bbe 02b1 0e3e 2006 02be b20a eb3c
00000170: 222d 743e fa88 8d3d fd7d dd3e c1a8 72be
00000180: e5a0 243e f6de 8cbe 544c e13e 1a5c 84be
00000190: ea51 263f f5c6 213e 8135 8e3e d9de 59be
000001a0: 1d72 d73d 2a3b 2dbe afc0 4e3e f71b fe3d
000001b0: ceac bcbd e84e f73e f5a0 cabe b3e1 ea3e
000001c0: e32c 6e3e ca41 31bf c896 24be 94c7 aebe
000001d0: 0684 ccbe 8e28 e7be 7746 113f 83ec ba3e
000001e0: 729c 20bd 636b 423e d8b7 083f a7cd da3e
000001f0: 1f49 de3e 4cf0 17bf 5d24 a13e d9fd 0f3f
00000200: 86b1 9bbc bbda fe3e 0f45 0e3f 6aeb 233f
00000210: 51c6 3a3d fca9 c43e 0efb cc3e 24a1 083f
00000220: aae1 f93d 9657 1a3f c6c4 a7be 0340 ac3e
00000230: bf89 8bbe 977d dcbe 36e5 183f d94e 433e
00000240: c437 0d3e 749a bfbe e9b7 acbe 963e 76be
00000250: 8103 9fbe 3641 673e 265d 593e 8da7 043f
00000260: 963e e0bc b94b da3e 2c0d f3be dd64 1abe
00000270: 042b 7e3e a1cc a23e d9bf 793e d51d b33e
00000280: d7ae eabd 639f 8b3d a2a4 fb3e 4aba fb3e
00000290: ee1c af3d 2902 173e a8df 743e 451e 1ebf
000002a0: 764d b93e 778a c83e 53f1 fb3e ec86 2a3e
000002b0: e2a1 ae3d 6de9 b9be 62cc 0f3f dc55 bbbd
000002c0: 5392 b53e 2182 bbbe 0bb7 f13d 7222 1ebf
000002d0: d3a5 ce3e 9460 d23d e53a d53e a7e2 903d
000002e0: 4f8d 9e3d 23db bdbe 228a 963d 4907 dfbd
000002f0: dc83 353f c877 b33e 5fc3 f53e 64d5 203e
00000300: 9f60 19bf 698d 15be 1847 c33d 63e4 5b3e
00000310: 818a ca3e bd7c 9bbe 7afd ea3e 9ed2 ca3e
00000320: a21e fe3e d327 fa3e f759 02bf 0aae e63e
00000330: 88cd 1bbe e78b 8b3e b7a4 113e a171 e73e
00000340: b40d 4c3f 9d25 ac3e 189f df3e 201f 2e3f
00000350: 8c5e 5cbe 7515 b33e c339 0f3f 7d20 293f
00000360: fda1 fa3e 3ca4 6cbe 1c06 273f a2db b4be
00000370: 3b99 413e 9f69 cbbe 1f13 d43e 6659 1d3f
00000380: b7d5 eb3e a7cc df3e 210d 47be ad1f 8bbe
00000390: c194 c93e 14eb 16bd 111f c9bd 0e3e 3cbe
000003a0: ccce 4fbe ad6c cbbe 65fc 9b3e 916a cbbe
000003b0: 89e8 d43e 316a cbbe 576e cbbe 27b4 20bf
000003c0: b28c 2c3e 8fdc 55be 356e 803e 552d c7be
000003d0: ca75 c23e 482c 08bf c1ed 97be 9517 503c
000003e0: 15e8 a23e 1b3c ec3e 397b 21be 283a b3be
000003f0: 666a 023f 1e6f 2d3f 3b4b f13e 6825 1a3f

l1.bias f4 [8]
0.72003216 0.8537644 0.86231583 0.6177176 0.39728102 0.7371103 0.46703956 0.7859356
00000000: 0754 383f 4e90 5a3f bbc0 5c3f be22 1e3f
00000010: 6b68 cb3e 43b3 3c3f cf1f ef3e 1333 493f

l2.weight f4 [8, 8]
-0.4606857 -0.5991001 0.5137803 0.22832249 -0.8142693 -0.91766995 0.47024685 0.71231437
-0.90968704 0.30005938 1.0961944 1.09991 0.113273025 -0.6331832 1.1166697 0.7887244
0.23885569 -0.29576018 -0.10450332 -0.14079964 -0.32502508 -0.31075943 -0.12648185 -0.24246643
0.03204149 -0.4242283 -0.05739809 0.706077 0.42780885 0.48573485 -0.8813595 -0.1572283
0.26512814 -0.45385724 0.81574816 1.0251864 -0.2862356 0.013795668 -1.062115 0.9010392
0.8845914 1.101783 0.71151805 -0.9052945 -1.0224222 0.80482584 0.68442535 0.8943482
0.93822175 0.9037386 0.101563625 0.28230378 0.7749054 1.0450318 -1.006643 -0.07090665
0.43200946 0.9356027 -1.0205278 0.9245336 0.7946239 0.7069617 0.9869185 -0.9735487
00000000: ffde ebbe a05e 19bf 1b87 033f 5fcd 693e
00000010: f473 50bf 6bec 6abf 32c4 f03e 3c5a 363f
00000020: 40e1 68bf 62a1 993e 1950 8c3f dac9 8c3f
00000030: b0fb e73d 4b18 22bf 08ef 8e3f d8e9 493f
00000040: 9696 743e e16d 97be d605 d6bd c82d 10be
00000050: b069 a6be dc1b 9fbe 7584 01be 1f49 78be
00000060: f03d 033d 7434 d9be 421a 6bbd 76c1 343f
00000070: c309 db3e 3db2 f83e c7a0 61bf 7500 21be
00000080: e0be 873e fa5f e8be dfd4 503f 4f39 833f
00000090: 798d 92be 3a07 623c 62f3 87bf 81aa 663f
000000a0: 9574 623f 3a07 8d3f 0c26 363f 61c1 67bf
000000b0: bbde 82bf 1109 4e3f 8036 2f3f 01f4 643f
000000c0: 4d2f 703f 6a5b 673f 9700 d03d 1f8a 903e
000000d0: 3360 463f 9ac3 853f aed9 80bf 8137 91bd
000000e0: 5830 dd3e a983 6f3f a8a0 82bf 3cae 6c3f
000000f0: 796c 4b3f 71fb 343f b1a6 7c3f 7d3a 79bf

l2.bias f4 [8]
-0.1753482 0.027770355 -0.0028737783 -0.31400073 0.55086046 0.76197016 0.455392 0.3641277
00000000: 7b8e 33be a87e e33c 0056 3cbb b4c4 a0be
00000010: 3105 0d3f 7a10 433f 2429 e93e f26e ba3e

l3.weight f4 [7, 8]
0.012871153 0.28896293 -0.06300455 -0.67397654 -1.2497892 0.60838085 -1.2693342 -0.7113239
0.7063959 0.1342438 0.0906803 -0.7233242 0.5941657 -0.46876547 -1.4440331 -0.74840266
-0.25711071 -1.6404372 -0.06450361 -1.1228573 -1.3510362 0.85485333 0.16491972 0.20698538
-0.91355395 -0.42047366 -0.3273055 -1.2447042 0.5224423 0.4811937 0.12012064 -1.1309457
-1.1213549 0.15093228 0.2908325 1.0641087 0.72943515 -1.3634781 -0.35183793 -0.42956448
-0.5063175 -1.6529015 0.054374903 1.0157083 -0.4396045 -0.68645024 0.50453234 0.5314419
-0.61965907 0.31754676 -0.21178998 -1.4952055 -1.2040257 -0.5803007 -0.113183126 0.6082287
00000000: 87e1 523c f3f2 933e 8808 81bd ba89 2cbf
00000010: 18f9 9fbf d9be 1b3f 8b79 a2bf 5319 36bf
00000020: 5dd6 343f 3577 093e 98b6 b93d c62b 39bf
00000030: 3e1b 183f 0702 f0be 14d6 b8bf 5197 3fbf
00000040: 04a4 83be d9f9 d1bf 781a 84bd cab9 8fbf
00000050: c1ee acbf abd7 5a3f b7e0 283e faf3 533e
00000060: acde 69bf 5348 d7be 9694 a7be 7852 9fbf
00000070: c7be 053f 055f f63e cf01 f63d d4c2 90bf
00000080: 8f88 8fbf fe8d 1a3e ffe7 943e b734 883f
00000090: 43bc 3a3f 7386 aebf 1a24 b4be e0ef dbbe
000000a0: 069e 01bf 4792 d3bf 38b8 5e3d bb02 823f
000000b0: d713 e1be 34bb 2fbf 0829 013f 940c 083f
000000c0: faa1 1ebf 7d95 a23e 79df 58be e562 bfbf
000000d0: 841d 9abf 968e 14bf 8ecc e7bd e0b4 1b3f

l3.bias f4 [7]
-0.34977993 -0.32692266 -0.16769852 0.00014782196 -0.08016853 -0.47199327 0.089108884
00000000: 5b16 b3be 6862 a7be 29b9 2bbe a800 1b39
00000010: 662f a4bd 1aa9 f1be b87e b63d
